…
#  - [-1, 1, Conv, [512, 3, 2]]
#  - [[-1, 8], 1, Concat, [1]] # cat head P5
#  - [-1, 2, C3k2, [1024, True]] # 20 (P5/32-large)

  - [[14], 1, Detect, [nc]]


training:
  task: detect
  optimizer: SGD
  lr0: 0.01
  lrf: 0.0001
  momentum: 0.9
  weight_decay: 0.0005
  warmup_epochs: 3
  pretrained: False
  cache: False
  save_dir: "/workspace/results"
  project: "/workspace/results"
  device: 0
  epochs: 200
  batch: 64
  save: True
  verbose: True
  save_period: 10

#                   from  n    params  module                                       arguments
#  0                  -1  1       928  ultralytics.nn.modules.conv.Conv             [3, 32, 3, 2]
#  1                  -1  1     18560  ultralytics.nn.modules.conv.Conv             [32, 64, 3, 2]
#  2                  -1  1     26080  ultralytics.nn.modules.block.C3k2            [64, 128, 1, False, 0.25]
#  3                  -1  1    147712  ultralytics.nn.modules.conv.Conv             [128, 128, 3, 2]
#  4                  -1  1    103360  ultralytics.nn.modules.block.C3k2            [128, 256, 1, False, 0.25]
#  5                  -1  1    590336  ultralytics.nn.modules.conv.Conv             [256, 256, 3, 2]
#  6                  -1  1    377856  ultralytics.nn.modules.block.A2C2f           [256, 256, 1, True, 4]
#  7                  -1  1   1180672  ultralytics.nn.modules.conv.Conv             [256, 512, 3, 2]
#  8                  -1  1   1476608  ultralytics.nn.modules.block.A2C2f           [512, 512, 1, True, 1]
#  9                  -1  1         0  torch.nn.modules.upsampling.Upsample         [None, 2, 'nearest']
# 10             [-1, 6]  1         0  ultralytics.nn.modules.conv.Concat           [1]
# 11                  -1  1    345856  ultralytics.nn.modules.block.A2C2f           [768, 256, 1, False, -1]
# 12                  -1  1         0  torch.nn.modules.upsampling.Upsample         [None, 2, 'nearest']
# 13             [-1, 4]  1         0  ultralytics.nn.modules.conv.Concat           [1]
# 14                  -1  1     95104  ultralytics.nn.modules.block.A2C2f           [512, 128, 1, False, -1]
# 15                [14]  1    151249  ultralytics.nn.modules.head.Detect           [1, [128]]
#YOLOv12sLight summary: 146 layers, 4,514,321 parameters, 4,514,305 gradients, 15.3 GFLOPs